…
;% layer_dense(units = 1, activation = &quot;sigmoid&quot;) model &lt;- keras_model(input, output) # configure the model to use an optimizer and a loss function model %&gt;% compile( optimizer = &#39;adam&#39;, loss = &#39;binary_crossentropy&#39;, metrics = list(&#39;accuracy&#39;)) summary(model) Model: &quot;model&quot; ___________________________________________________________ Layer (type) Output Shape Param # =========================================================== input_1 (InputLayer) [(None, 1)] 0 ___________________________________________________________ text_vectorization (TextV (None, 50) 0 ___________________________________________________________ embedding (Embedding) (None, 50, 16) 160016 ___________________________________________________________ global_average_pooling1d (None, 16) 0 ___________________________________________________________ dense (Dense) (None, 16) 272 ___________________________________________________________ dropout (Dropout) (None, 16) 0 ___________________________________________________________ dense_1 (Dense) (None, 1) 17 =========================================================== Total params: 160,305 Trainable params: 160,305 Non-trainable params: 0 ___________________________________________________________ # train the model history &lt;- model %&gt;% fit( train$text_clean, as.numeric(train$polarity == 1), epochs = 10, batch_size = 512, validation_split = 0.2, verbose=2) RStudio Console output during model fitt
…
